_________________________________________________________________
Layer (type)                 Output Shape              Param #   
=================================================================
conv1d_31 (Conv1D)           (None, 576006, 3)         75        
_________________________________________________________________
batch_normalization_16 (Batc (None, 576006, 3)         12        
_________________________________________________________________
conv1d_32 (Conv1D)           (None, 288003, 3)         219       
_________________________________________________________________
max_pooling1d_16 (MaxPooling (None, 144001, 3)         0         
_________________________________________________________________
conv1d_33 (Conv1D)           (None, 72001, 6)          438       
_________________________________________________________________
batch_normalization_17 (Batc (None, 72001, 6)          24        
_________________________________________________________________
conv1d_34 (Conv1D)           (None, 36001, 6)          870       
_________________________________________________________________
max_pooling1d_17 (MaxPooling (None, 18000, 6)          0         
_________________________________________________________________
conv1d_35 (Conv1D)           (None, 9000, 9)           1305      
_________________________________________________________________
batch_normalization_18 (Batc (None, 9000, 9)           36        
_________________________________________________________________
conv1d_36 (Conv1D)           (None, 4500, 9)           1953      
_________________________________________________________________
max_pooling1d_18 (MaxPooling (None, 2250, 9)           0         
_________________________________________________________________
conv1d_37 (Conv1D)           (None, 1125, 12)          2604      
_________________________________________________________________
batch_normalization_19 (Batc (None, 1125, 12)          48        
_________________________________________________________________
conv1d_38 (Conv1D)           (None, 563, 12)           3468      
_________________________________________________________________
max_pooling1d_19 (MaxPooling (None, 281, 12)           0         
_________________________________________________________________
conv1d_39 (Conv1D)           (None, 141, 15)           4335      
_________________________________________________________________
batch_normalization_20 (Batc (None, 141, 15)           60        
_________________________________________________________________
conv1d_40 (Conv1D)           (None, 71, 15)            5415      
_________________________________________________________________
max_pooling1d_20 (MaxPooling (None, 35, 15)            0         
_________________________________________________________________
flatten_4 (Flatten)          (None, 525)               0         
_________________________________________________________________
dense_10 (Dense)             (None, 12)                6312      
_________________________________________________________________
dense_11 (Dense)             (None, 12)                156       
_________________________________________________________________
dropout_4 (Dropout)          (None, 12)                0         
_________________________________________________________________
dense_12 (Dense)             (None, 2)                 26        
=================================================================
Total params: 27,356
Trainable params: 27,266
Non-trainable params: 90
_________________________________________________________________
